model/math_symbol_recognizer.tflite (tflite, 905784 bytes, 8 tensors)

arith.constant f4 [128]
0	0xbc454bb9	-0.0120419795
1	0x3bc45fc8	0.0059928633
2	0x3d13b353	0.03605969
3	0xbd3b7f52	-0.04577572
4	0xbd36277d	-0.044471253
5	0xbd112ec4	-0.03544499
6	0x3b2313b1	0.0024883563
7	0x3c15780e	0.009122862
8	0x3c8b8d21	0.017035069
9	0x3b84158e	0.00403089
10	0xbd399336	-0.045306407
11	0xbd33338c	-0.04375033
12	0xbc258f48	-0.010104962
13	0xbc7d11a2	-0.0154460985
14	0xbc02446f	-0.007950886
15	0xbb712642	-0.0036796485
16	0xbcfdc891	-0.030979427
17	0xbcf315f0	-0.029673547
18	0x3c942a8c	0.018086694
19	0xbd574d22	-0.052563794
20	0xbbdf9a61	-0.0068238233
21	0xbc3e055e	-0.011597959
22	0xbc518a50	-0.012789324
23	0x3d1d3668	0.038381964
24	0xbcbd5d10	-0.023115665
25	0xbc7c4457	-0.015397153
26	0xbd9a46cc	-0.07533035
27	0x3c5ca7ca	0.013467738
28	0x3c0f24c5	0.008736794
29	0x3b906a1c	0.0044071805
30	0xbb946de6	-0.0045297025
31	0xbc387641	-0.011258663
32	0xbc061a1c	-0.008184936
33	0x3b8522b2	0.004062974
34	0x3bad4291	0.0052874763
35	0xbcd80662	-0.026370231
36	0x3c63298e	0.013864888
37	0xbc4a4991	-0.012346641
38	0xbc1cc7f2	-0.009569155
39	0xbca47fd4	-0.020080484
40	0xbd8b8ccd	-0.06813965
41	0xbd5d3bfb	-0.05401228
42	0xbdbbbbc7	-0.09166675
43	0x3b499ada	0.0030762465
44	0xbd63efa4	-0.05564846
45	0xbd3f704e	-0.04673796
46	0x3b9b1f83	0.004733981
47	0xbd09a701	-0.033606533
48	0xbbf5f2a4	-0.0075057317
49	0xbc713af4	-0.014723528
50	0x39666961	0.00021973766
51	0x3c559eb4	0.013038326
52	0xbc746c65	-0.014918421
53	0xbca1427f	-0.019685028
54	0x3c00af49	0.007854291
55	0xbd0a3ad3	-0.033747505
56	0xbd43cfd9	-0.04780564
57	0xbd3e17fb	-0.04640959
58	0x3b2d1d3f	0.0026415137
59	0xbc98ef4a	-0.01866879
60	0xba8e5a51	-0.0010860657
61	0xbcfaeb78	-0.030629858
62	0xbbde36f4	-0.0067814533
63	0xbbf402b3	-0.007446611
64	0xbca0930d	-0.01960137
65	0xbc392a2a	-0.011301557
66	0xbd6a1582	-0.057149418
67	0xbc97978d	-0.018504882
68	0x3d22b0e2	0.03971947
69	0x3ae52624	0.001748268
70	0x3d64927b	0.055803757
71	0xbd6ef576	-0.05833956
72	0xbd2c25b2	-0.042028137
73	0x3d22dfb7	0.039764132
74	0xbd790ee2	-0.06080521
75	0xbbc208ce	-0.0059214598
76	0x3a31f417	0.00067883864
77	0xbd7652d1	-0.060137574
78	0x3ca3e70a	0.020007629
79	0xbd0b7cc0	-0.034054518
80	0x3d4a8cc4	0.04945065
81	0x3c81ef5e	0.01586121
82	0xbcd62d24	-0.026144572
83	0x3d0a3530	0.03374213
84	0xbccbae83	-0.024863487
85	0xbc729551	-0.014806108
86	0xbce943b0	-0.028474659
87	0xbbcbe92f	-0.006222866
88	0xbd740841	-0.059578184
89	0xbc4b45dd	-0.012406793
90	0x3c87b929	0.016567783
91	0x3d82da2b	0.063892685
92	0x3c5076f4	0.012723673
93	0x3b891f12	0.004184612
94	0xbd590323	-0.052981507
95	0x3c6797ac	0.0141352825
96	0xbd432b28	-0.04764858
97	0xbc589502	-0.01321912
98	0x3cd79636	0.026316743
99	0xbd16b37f	-0.036792275
100	0xbbbe3ddb	-0.0058057136
101	0xbc96d672	-0.018412802
102	0xbb21c9ed	-0.0024687008
103	0xbc860532	-0.0163599
104	0x3c967ad9	0.018369125
105	0xbcdf7a67	-0.027280046
106	0xbbd0dbb7	-0.0063738483
107	0xbc888579	-0.016665207
108	0xbcc2e611	-0.023791345
109	0xbcbc99ac	-0.023022495
110	0xbc94ce60	-0.018164814
111	0xbc682e48	-0.014171191
112	0x3c76aabb	0.015055354
113	0x3bcc4317	0.0062335837
114	0xbc974a37	-0.018468006
115	0xbdc31feb	-0.09527572
116	0xb981c228	-0.00024749455
117	0x3d7aacb9	0.061199877
118	0xbc40be0b	-0.01176406
119	0xbbc4ba37	-0.006003644
120	0xbcded2a3	-0.027200049
121	0x3d13f4bb	0.036122065
122	0x3cdac82a	0.026706774
123	0xbc68c267	-0.014206505
124	0x3c1ee9d8	0.009699307
125	0xbc6e75c0	-0.014554441
126	0x3c8ea06d	0.017410481
127	0xbd69cbac	-0.057079002

arith.constant1 f4 [64]
0	0x3c2be8f7	0.010492555
1	0xbae96088	-0.0017805258
2	0xbd48e573	-0.049046945
3	0xbd84eefe	-0.06490897
4	0xbd4e70b1	-0.05040044
5	0xbd2c51ff	-0.042070385
6	0xbe0c35a1	-0.13692333
7	0xbcaaa59b	-0.02083092
8	0xbdeed912	-0.116624966
9	0xbe054a4c	-0.13016623
10	0x3be77287	0.0070632133
11	0xbde94884	-0.113907844
12	0xbd04b381	-0.03239775
13	0x3e19dc0d	0.15025349
14	0xbc6f672d	-0.014612001
15	0xbd832f32	-0.06405486
16	0xbc109d2b	-0.008826534
17	0x3c949424	0.018137045
18	0xbd42077e	-0.047370426
19	0x3cc295a7	0.023753
20	0xbc211658	-0.009831987
21	0xbc55eaed	-0.013056499
22	0xbde8029e	-0.11328624
23	0xbe059d39	-0.13048257
24	0xbd877da9	-0.06615765
25	0x3ce7ff9f	0.028320132
26	0xbc160720	-0.009156972
27	0x3cce2639	0.02516471
28	0x3ada8696	0.001667219
29	0xbdc44693	-0.095837735
30	0x3daad0cd	0.08340607
31	0xbcfe4423	-0.03103835
32	0xbe0360d0	-0.128299
33	0xbc0d6eb3	-0.00863235
34	0xbcee7398	-0.029107854
35	0xbd2feb59	-0.042949054
36	0xbc62c528	-0.013840951
37	0xbbb8e38b	-0.0056423596
38	0xbdabe367	-0.08392983
39	0xbcd971d5	-0.026543537
40	0x3d389c2a	0.045070805
41	0xbd975f00	-0.07391167
42	0x3d42826c	0.04748766
43	0xbc0db948	-0.0086501315
44	0xbcdee8c2	-0.027210597
45	0xbbca8833	-0.006180787
46	0xbd0287b7	-0.03186771
47	0xbd125a14	-0.035730436
48	0xbbda7ec9	-0.006667946
49	0xbdd7d3de	-0.10538457
50	0xbd1b3967	-0.03789654
51	0xbdf6f0b5	-0.1205763
52	0xbd2830ff	-0.04106235
53	0xbd4101db	-0.04712091
54	0x3cd2b681	0.02572179
55	0xbd8cc8cd	-0.06874237
56	0x3d017fc0	0.031615973
57	0xbd8b2d08	-0.067956984
58	0x3ceac189	0.028656738
59	0xbdffb3a4	-0.124854356
60	0xbc811224	-0.01575572
61	0xbdd9dd11	-0.10637868
62	0xbd1d8044	-0.0384524
63	0x3c4312f8	0.011906378

arith.constant2 f4 [13]
0	0x3d2578b3	0.04039831
1	0x3d510b79	0.05103633
2	0xbcc2e0d9	-0.023788856
3	0x3dc68400	0.09693146
4	0xbdfeacd0	-0.12435305
5	0x3dedd85a	0.116135314
6	0x3d70dbbe	0.058803312
7	0x3d9473e1	0.07248665
8	0xbc859619	-0.016306924
9	0xbcadfac3	-0.021237737
10	0x3d17c986	0.037057422
11	0xbe8e5f73	-0.27807197
12	0xbddaae14	-0.10677734

arith.constant3 f4 [64, 3, 3, 32]
0	0x3e3c1ddc	0.18370765
1	0x3c302d6a	0.010753015
2	0x3cd29360	0.02570504
3	0xbe5bcaa8	-0.21464026
4	0x3d3cb4e0	0.046070933
5	0x3d0db56a	0.034596838
6	0xbd0cf675	-0.034414727
7	0xbda355b5	-0.07975332
8	0x3e154871	0.14578415
9	0xbdf42177	-0.119204454
10	0x3e7429b2	0.2384403
11	0xbb994f99	-0.0046786782
12	0x3c9499eb	0.0181398
13	0xbd7428a4	-0.05960907
14	0xbd18036f	-0.03711265
15	0x3c53316c	0.012890201
16	0xbe2ce344	-0.1688357
17	0xbd998be0	-0.07497382
18	0xbd8ac1d3	-0.0677525
19	0x3db599b7	0.088672094
20	0x3d56496c	0.052316114
21	0x3e2e159d	0.17000432
22	0x3d28b7b2	0.04119081
23	0xbe1ca68a	-0.15297905
24	0xbdad4122	-0.08459689
25	0xbcf444d5	-0.029817978
26	0x3de0e623	0.10981395
27	0xbc93bfdc	-0.018035822
28	0x3dd60e5b	0.10451957
29	0x3ccdd8f0	0.025127858
30	0xbe0d0f55	-0.1377538
31	0xbda77eeb	-0.081785046
32	0x3e42f792	0.19039753
33	0x3dbe8b0b	0.09303864
34	0x3bbe3a74	0.005805308
35	0xbd36c7f6	-0.04462429
36	0x3d62809d	0.055298436
37	0x3dac4eda	0.08413477
38	0x3c462bab	0.012095372
39	0xbca861bd	-0.020554418
40	0x3ddbf3ca	0.107398584
41	0xbe04d8ea	-0.12973371
42	0x3e53bccd	0.2067749
43	0xbdaba710	-0.08381474
44	0x3c6b7edf	0.01437351
45	0xbd080813	-0.033210825
46	0xbd66274c	-0.05618982
47	0xbd2d26a1	-0.042273168
48	0xbd7486c3	-0.05969883
49	0x3d4c8cc1	0.04993892
50	0xbd8d0bf9	-0.06887049
51	0x3e1acd53	0.15117387
52	0x3d8352eb	0.064123
53	0x3dd66c26	0.104698464
54	0xbc55ddee	-0.0130534
55	0xbe2c2429	-0.16810669
56	0xbd32954a	-0.043599404
57	0xbd6f7dff	-0.05846977
58	0x3de9c85f	0.11415171
59	0xbdd22946	-0.102617785
60	0x3e063bb8	0.13108718
61	0x3dc57be7	0.09642773
62	0x3de2a269	0.110661335
63	0x3d01fea8	0.031737
64	0x3dc182b0	0.09448755
65	0x3d09ff93	0.033691
66	0x3d940fab	0.07229551
67	0xbd8b4488	-0.06800181
68	0xbd894a9a	-0.06703682
69	0x3dbbc3d9	0.09168214
70	0xbd303589	-0.043019805
71	0x3ca32cab	0.01991876
72	0x3cabf783	0.020992046
73	0x3cce37b8	0.025173053
74	0x3e09e5b1	0.13466527
75	0x3e09624d	0.13416405
76	0x3c1091ce	0.008823825
77	0xbd33744e	-0.04381209
78	0x3d5618c6	0.05226972
79	0x3d0f5c19	0.03499994
80	0x3c876e7f	0.01653218
81	0x3d87719d	0.06613467
82	0x3d2f0d6a	0.042737402
83	0x3aa6bbff	0.0012720822
84	0xbcb64d91	-0.022253783
85	0x3df444e6	0.11927204
86	0x3d7bfc5d	0.06151997
87	0xbc1ed4b6	-0.009694269
88	0x3cc2c644	0.023776181
89	0x3dfe4c8e	0.124169454
90	0x3e0016d6	0.12508711
91	0xbc49cb6b	-0.012316565
92	0x3ca670d4	0.020317473
93	0xbdd7c7c8	-0.10536152
94	0xbc1a6e10	-0.009425655
95	0x3ce80377	0.028321965
96	0x3c13121f	0.008976488
97	0xbc148139	-0.009064012
98	0xbd4af9fa	-0.049554802
99	0xbe7d81ff	-0.24756621
100	0x3d0c87d3	0.03430922
101	0xbdafb2ea	-0.08579047
102	0x3d4663c5	0.04843499
103	0x3cbd74b2	0.023126934
104	0xbdae9d38	-0.08526081
105	0xbbce45e4	-0.0062949527
106	0xbe019f90	-0.12658525
107	0x3e1d905b	0.15387098
108	0x3dbd87c9	0.092544146
109	0x3dd791b7	0.1052584
110	0x3d1bd578	0.038045377
111	0x3da175d8	0.07883805
112	0xbda3a847	-0.07991081
113	0x3c0e1991	0.008673088
114	0xbddb7626	-0.107158944
115	0xbd7399fc	-0.059473023
116	0xbda22a84	-0.079182655
117	0xbd3da1df	-0.04629695
118	0x3cc1b4e6	0.02364583
119	0xbde78c08	-0.11306006
120	0x3e1d2074	0.15344411
121	0x3e63ae5b	0.2223448
122	0xbde20e6a	-0.110379055
123	0x3d9fc834	0.078018576
124	0x3d367c79	0.0445523
125	0x3bceadf1	0.0063073565
126	0xbdeb9d66	-0.11504631
127	0xbbbb23f3	-0.0057110726
128	0xbcd8b07c	-0.026451342
129	0xbda66601	-0.081249245
130	0x3d2c2ec6	0.042036794
131	0xbe035bfa	-0.12828055
132	0xbce300ae	-0.027710285
133	0xbdb874b0	-0.090066314
134	0x3dfa4e9a	0.12222023
135	0xbd516ac8	-0.051127225
136	0xbda8bdeb	-0.08239349
137	0xbc70023b	-0.014648969
138	0xbe0e4fb0	-0.13897586
139	0x3e1c1fbd	0.15246482
140	0x3cbc4a70	0.022984713
141	0x3e03fdca	0.12889782
142	0x3dad2caa	0.084557846
143	0x3dabbb51	0.08385337
144	0xbd89e5c7	-0.0673328
145	0x3ddb4ccb	0.107080065
146	0x3dbaf894	0.09129444
147	0xbdbaab8e	-0.09114753
148	0xbd1b64d1	-0.037937943
149	0xbccbe527	-0.024889542
150	0xbd2962cc	-0.041353986
151	0xbd836387	-0.06415468
152	0x3bc98b41	0.0061506336
153	0x3d1fe116	0.039033018
154	0xbe048c0a	-0.12944046
155	0x3db4a90d	0.088213064
156	0xbd60a40a	-0.05484394
157	0xbc8c936f	-0.017160146
158	0xbc9d7712	-0.019221816
159	0x3d1bd87f	0.038048264
160	0xbce5eac2	-0.028066043
161	0xbd261f3e	-0.04055714
162	0xbca67cc2	-0.020323161
163	0x3bb2667b	0.0054443455
164	0x3c05254e	0.00812657
165	0xbe5737be	-0.21017358
166	0x3d1f4391	0.038882796
167	0xbdf896d5	-0.12138144
168	0xbde1c7d6	-0.11024444
169	0xbdf44781	-0.11927701
170	0xbd4c473b	-0.04987262
171	0x3cf1cab8	0.02951561
172	0xba9de489	-0.0012046258
173	0xbce5971c	-0.028026156
174	0xbd4cdd93	-0.050015997
175	0xbc920239	-0.017823325
176	0xbe21ebec	-0.15812653
177	0x3cf03966	0.029324245
178	0x3b892224	0.004184978
179	0xbe2dd9a9	-0.16977562
180	0xbdb7081c	-0.089370936
181	0xbe2d8d95	-0.1694854
182	0xbdaf0828	-0.085464776
183	0xbdec9fc6	-0.11553912
184	0xbd42d257	-0.047563877
185	0x3daffbd7	0.085929565
186	0xbe210df3	-0.15727977
187	0x3d8e3d4a	0.06945284
188	0xbd9368ee	-0.07197748
189	0xbd473f9f	-0.04864466
190	0xbcdf83af	-0.027284471
191	0x3d20d60a	0.039266624
192	0x3ccae0c8	0.024765387
193	0xbde2cd51	-0.11074317
194	0x3a0bb737	0.00053297303
195	0xbe183cec	-0.1486699
196	0x3c9ff3f9	0.019525515
197	0xbdd17ebe	-0.10229252
198	0xbd0184a0	-0.03162062
199	0xbd5904fa	-0.05298326
200	0x3c810fc4	0.015754588
201	0x3c9c7177	0.019097073
202	0xbd008209	-0.03137401
203	0xbd4ef08d	-0.050522376
204	0xbe3455d4	-0.17610866
205	0xbe2cffd4	-0.16894466
206	0xbc5de406	-0.013543135
207	0xbdaf7f7d	-0.08569238
208	0x3d6e76f8	0.058218926
209	0xbe13a579	-0.14418592
210	0xbd9bbccd	-0.0760437
211	0xbe20cf44	-0.15704066
212	0xbe59aa6e	-0.2125642
213	0xbe010bc0	-0.12602139
214	0xbc630bc2	-0.013857784
215	0x3db75a73	0.08952799
216	0x3d5c76e3	0.053824317
217	0xbdb338c8	-0.087510645
218	0xbdd03513	-0.10166373
219	0xbe023fed	-0.12719698
220	0xbdb1692b	-0.08662637
221	0xbdf4ff72	-0.11962785
222	0x3dd63a1d	0.10460303
223	0xbe2c6d39	-0.1683854
224	0x3c807933	0.015682792
225	0xbe386a23	-0.18009238
226	0xbe4115dc	-0.18855995
227	0xbe3e5b19	-0.18589438
228	0xbd9fc654	-0.078015
229	0xbd91af8a	-0.071135595
230	0xbdd133c9	-0.10214955
231	0xbdd4bc08	-0.103874266
232	0xbc2d1afd	-0.010565517
233	0xbbe5c898	-0.007012438
234	0xbcdbf58f	-0.02685049
235	0xbd5c3154	-0.05375798
236	0xbdd29f0f	-0.10284244
237	0xbe00e726	-0.12588176
238	0xbe006b76	-0.12540993
239	0xbe3d22b7	-0.18470274
240	0xbdf02dc6	-0.117274806
241	0xbde730bb	-0.112885915
242	0xbe2f1725	-0.17098673
243	0xbe129c3c	-0.14317411
244	0xbe875228	-0.26429868
245	0xbe6ed8d8	-0.23324907
246	0xbd505986	-0.050866626
247	0xbe2871b2	-0.16449621
248	0x3c397aa0	0.01132074
249	0xbdd5256a	-0.10407527
250	0xbe348650	-0.17629361
251	0xbd8d9b52	-0.069143906
252	0xbe1eaec8	-0.15496361
253	0x3d1ccd18	0.03828153
254	0xbda1a6d2	-0.078931466
255	0xbd23d751	-0.040000264

arith.constant4 f4 [13, 128]
0	0x3d34475d	0.04401337
1	0xbe0fdaac	-0.1404826
2	0xbe4d5dd0	-0.20055318
3	0x3e2a8850	0.16653562
4	0xbe654607	-0.22389995
5	0xbe23dc02	-0.16001895
6	0x3e1fa161	0.15588905
7	0xbe5ac253	-0.21363191
8	0x3dc0215b	0.09381362
9	0xbd6f7c0f	-0.05846792
10	0xbbd4c43a	-0.0064931186
11	0xbeadb40d	-0.3392643
12	0x3db1c2d1	0.086797364
13	0x3b804d06	0.003915432
14	0xbe7a165b	-0.2442259
15	0x3c911051	0.017707976
16	0x3e2a2a31	0.16617657
17	0x3d80ee53	0.06295457
18	0xbdb3d3cf	-0.08780634
19	0x3e032f7d	0.12811084
20	0x3cf6a4aa	0.030107815
21	0x3d5f8a0b	0.054575007
22	0xbe1bedd9	-0.1522745
23	0xbd9ece9e	-0.07754253
24	0x3df347d7	0.11878937
25	0x3e2282a3	0.15870146
26	0x3e3f69ca	0.18692699
27	0xbe650fc1	-0.22369291
28	0xbe023fac	-0.12719601
29	0xbd9b35fa	-0.075786546
30	0x3e1cad97	0.15300594
31	0xbe4144e7	-0.1887394
32	0x3da9df62	0.0829456
33	0xbe9e46ee	-0.3091349
34	0xbe12aa14	-0.14322692
35	0xbe842917	-0.258126
36	0x3d388754	0.045050934
37	0x3da5cfca	0.08096273
38	0xbde0bf10	-0.10973942
39	0xbe0c8e21	-0.13726093
40	0x3d82ea9f	0.06392407
41	0x3d8ef5b3	0.06980457
42	0x3e45f7b0	0.19332767
43	0xbb89f6ff	-0.0042103524
44	0x3e08897b	0.13333695
45	0x3d616667	0.0550293
46	0xbe9964f7	-0.29959843
47	0xbd67519b	-0.05647431
48	0xbdafe1f6	-0.085880205
49	0xbdbbccd7	-0.091699295
50	0x3e174225	0.14771326
51	0x3e119b4d	0.14219399
52	0x3e3d8141	0.18506338
53	0x3da37850	0.07981932
54	0xbd56ac80	-0.052410603
55	0x3d80053c	0.062509984
56	0xbd3d3564	-0.046193495
57	0x3cb475ee	0.02202889
58	0xbe204afd	-0.15653606
59	0xbe1a471e	-0.15066192
60	0xbdd6c080	-0.10485935
61	0xbdb2a63a	-0.087231115
62	0xbe85560b	-0.26042208
63	0x3e1221f6	0.14270768
64	0xbe27ecf3	-0.16398983
65	0xbe5499f5	-0.20761855
66	0xbc3913f1	-0.011296258
67	0x3d27733b	0.040881377
68	0xbe0a2b07	-0.13492976
69	0xbe39e701	-0.18154527
70	0x3e07bfd0	0.13256764
71	0x3e16a788	0.14712346
72	0x3dff438d	0.12464056
73	0x3c9f7982	0.01946712
74	0x3e798f83	0.24371152
75	0xbd09ab2b	-0.033610504
76	0x3d010aa0	0.031504273
77	0xbdda10c3	-0.10647728
78	0x3e383980	0.17990685
79	0xbe5c6e38	-0.2152642
80	0x3d5b16fd	0.05348872
81	0xbe22c9df	-0.1589732
82	0xbda7390a	-0.08165176
83	0xbdd5f261	-0.10446621
84	0x3b0c8969	0.0021444208
85	0xbda7765f	-0.08176874
86	0x3da3d1cd	0.07999001
87	0x3ddd7718	0.10813731
88	0xbe391823	-0.18075614
89	0xbe2f50bc	-0.17120641
90	0x3e507095	0.20355447
91	0xbea2611b	-0.3171471
92	0xbe356024	-0.17712456
93	0x3e0a5073	0.13507251
94	0x3e3222eb	0.17396133
95	0xbe605fd7	-0.2191156
96	0xbda2e227	-0.079532914
97	0x3d8c785c	0.06858894
98	0xbb33b5f9	-0.0027421697
99	0x3e4e0e88	0.2012273
100	0x3e39aba8	0.18131888
101	0x3ab47657	0.0013768178
102	0xbe8314c8	-0.25601792
103	0x3d187897	0.03722438
104	0xbe86efdc	-0.26354873
105	0x3d352861	0.04422796
106	0x3d1effc5	0.03881814
107	0xbe194b8f	-0.1497023
108	0x3e005c4e	0.12535211
109	0xbeb2a5b1	-0.34892038
110	0x3dcfe6c0	0.10151434
111	0xbe8718cb	-0.26386103
112	0xbe205b4a	-0.15659824
113	0xbe111159	-0.14166774
114	0xbe3dc07e	-0.18530461
115	0x3dfd1f1f	0.123594515
116	0x3e56657a	0.20937148
117	0xbea69745	-0.32537284
118	0xbe117e37	-0.14208303
119	0x3dd3716f	0.1032437
120	0x3e02c639	0.12770928
121	0xbdd4ceaa	-0.103909805
122	0xbeaca1a9	-0.33717087
123	0x3e1028d9	0.14078082
124	0x3e487321	0.19575168
125	0x3d8c6e33	0.06856956
126	0x3d9f5868	0.07780534
127	0x3e1aa218	0.15100896
128	0xbe567368	-0.20942461
129	0x3dc6e144	0.09710935
130	0x3e273674	0.16329366
131	0xbea49c70	-0.32150602
132	0xbe377a09	-0.17917646
133	0xbd70cc4a	-0.058788575
134	0x3e0aa750	0.13540387
135	0xbd5f9146	-0.054581903
136	0xbdd27d1d	-0.1027777
137	0x3e970519	0.29496077
138	0xbd79914f	-0.060929593
139	0xbc3dab71	-0.011576519
140	0x3db1160a	0.08646782
141	0xbdbe6c10	-0.09297955
142	0xbe9c6e04	-0.30552685
143	0xbec93afe	-0.3930282
144	0x3e2a2a38	0.16617668
145	0xbc35f29e	-0.011105208
146	0xbe54e939	-0.20792092
147	0x3e2d50ba	0.16925326
148	0xbe26f6d1	-0.1630509
149	0xbe3660ab	-0.17810313
150	0xbe394aeb	-0.18094985
151	0x3e09f5c6	0.13472661
152	0x3dc8f5d3	0.09812512
153	0x3de8261f	0.11335396
154	0xbe345cf6	-0.17613587
155	0x3c9d038b	0.019166728
156	0xbeb8b1ae	-0.3607306
157	0xbd9e5b17	-0.07732218
158	0xbbf1b368	-0.007376123
159	0xbd698939	-0.05701563
160	0xbe105763	-0.14095835
161	0x3e1e242f	0.1544349
162	0x3e29bd68	0.16576159
163	0x3d2d8d5a	0.04237113
164	0xbe8b6082	-0.27222067
165	0xbc1d336f	-0.009594782
166	0xbe628bad	-0.22123595
167	0x3dc7cfe7	0.09756451
168	0xbd416ed8	-0.04722485
169	0xbd121321	-0.035662774
170	0x3c957620	0.018244803
171	0xbe51db6c	-0.20493859
172	0xbe18815a	-0.14893094
173	0xbe9edd1e	-0.31028074
174	0x3e42b73a	0.19015208
175	0xbe2320c9	-0.15930475
176	0x3df4b809	0.119491644
177	0xbe636e5b	-0.22210066
178	0x3dc4db88	0.09612185
179	0x3e8507a1	0.25982383
180	0x3e66691d	0.22501035
181	0x3d08a7b9	0.033363078
182	0xbba8c148	-0.005149994
183	0xbe55c2ad	-0.20875044
184	0xbe84bed8	-0.25926852
185	0xbdec9797	-0.11552351
186	0xbe6e2263	-0.23255305
187	0x3df5fcaa	0.120110825
188	0x3e39597e	0.18100545
189	0xbeb65cf0	-0.3561778
190	0xbcf4d668	-0.029887393
191	0x3d57d31b	0.05269156
192	0xbe05b5a3	-0.1305757
193	0xbdc89179	-0.09793372
194	0x3d194836	0.03742238
195	0x3d457fd4	0.04821761
196	0x3e83ef6c	0.25768602
197	0x3e43c9fa	0.19120017
198	0x3e1b42cf	0.15162204
199	0xbe064c2f	-0.13114999
200	0xbeb3c959	-0.35114554
201	0x3e4a4ff7	0.19757067
202	0xbe4b522d	-0.19855566
203	0xbe821046	-0.2540304
204	0x3e322475	0.1739672
205	0xbd86695a	-0.06563063
206	0x3e60b649	0.21944536
207	0x3e1fd5f1	0.15608956
208	0xbe99eb7c	-0.30062473
209	0x3e04db80	0.12974358
210	0xbdad009c	-0.08447382
211	0x3e3ffef0	0.18749595
212	0x3c3267bb	0.010888989
213	0x3d8780eb	0.06616386
214	0x3ac3c602	0.001493633
215	0x3d107496	0.035267435
216	0xbe97bb14	-0.29634917
217	0xbd8df1b6	-0.06930868
218	0x3ddde932	0.10835494
219	0x3e235595	0.15950616
220	0x3d39fa3c	0.045404658
221	0x3d8d0f5f	0.068876974
222	0xbdefd9a2	-0.11711432
223	0xbd818243	-0.063236736
224	0xbd811d8f	-0.06304466
225	0xbd02dcfe	-0.031949036
226	0x3e0a020c	0.13477343
227	0x3e11b9e1	0.14231063
228	0xbd5dd1c8	-0.05415514
229	0xbdf61712	-0.12016119
230	0x3deaa6db	0.114576064
231	0x3e199a9a	0.15000382
232	0xbdda4799	-0.106581874
233	0x3dd6c87d	0.10487459
234	0xbd5aa13e	-0.05337643
235	0xbdfd8ba6	-0.123801515
236	0xbacbf483	-0.0015560541
237	0xbe8896b0	-0.26677465
238	0xbd3b6c6c	-0.045757696
239	0x3c478dda	0.012179816
240	0xbe04dae7	-0.1297413
241	0x3e87af78	0.2650106
242	0x3dd90e29	0.10598404
243	0xbe8c89ba	-0.27448827
244	0x3e0597e9	0.1304623
245	0x3db0f09f	0.08639645
246	0x3dd756be	0.10514592
247	0x3e206430	0.15663218
248	0xbeabe1b7	-0.33570644
249	0x3dd91f60	0.106016874
250	0x3e34e008	0.17663586
251	0xbe3994dc	-0.18123192
252	0x3e120ada	0.14261952
253	0xbe8952d7	-0.26821014
254	0xbea362e4	-0.31911385
255	0x3e238bf4	0.15971357

arith.constant5 f4 [128, 1600]
0	0xbd38eccc	-0.045147702
1	0x3cf564e2	0.029955331
2	0x3d93a498	0.07209128
3	0xbd82f828	-0.06394988
4	0x3b8a9d21	0.004230157
5	0x3a9b73e2	0.0011860097
6	0xbd060e46	-0.032728456
7	0x3cbc4576	0.02298234
8	0xbdd6b250	-0.10483229
9	0xbd8d6219	-0.06903476
10	0xbda81f5c	-0.08209106
11	0xbd6b350f	-0.057423647
12	0x3d113120	0.03544724
13	0x3c2cdfaa	0.010551373
14	0xbd8274ef	-0.063699596
15	0xbd835be7	-0.06414013
16	0xbbb5bf6b	-0.0055465004
17	0x3d3a9e8c	0.04556136
18	0xbcbcf171	-0.023064347
19	0x3cf7cbce	0.030248549
20	0xbd017556	-0.03160604
21	0x3c4f89e0	0.012667149
22	0xbdf17401	-0.11789704
23	0xbc897daf	-0.016783563
24	0xba3b6b20	-0.0007149447
25	0xbcebe744	-0.0287968
26	0xbd1b57ce	-0.037925534
27	0xbe0849f7	-0.13309465
28	0x3ddd10fe	0.10794257
29	0xbdff7a22	-0.12474467
30	0xb9f966b6	-0.00047569507
31	0x3c131be6	0.0089788195
32	0xbdbe75fd	-0.09299848
33	0xba566346	-0.0008178245
34	0xbd2cc672	-0.04218144
35	0xbdb781f2	-0.08960332
36	0x3d9463f1	0.07245625
37	0xbd921bf2	-0.071342364
38	0xbcb2bc09	-0.021818178
39	0xbdb43733	-0.08799591
40	0x3d3dc15d	0.046326984
41	0xbc6a75cd	-0.014310312
42	0x3c825f98	0.015914723
43	0x3e24994e	0.16074106
44	0x3a07e578	0.0005184035
45	0x39b9feae	0.000354757
46	0x3d629f1f	0.05532753
47	0x3bf04d49	0.007333432
48	0xbd238edf	-0.039931174
49	0x3e180e4e	0.14849207
50	0x3cb3539d	0.021890456
51	0xbdb62f1c	-0.08895704
52	0x3d7a7915	0.06115063
53	0xbe0b5786	-0.13607606
54	0x3d208558	0.039189667
55	0xbd8ee520	-0.06977296
56	0x3d1ebfde	0.038757198
57	0xb93c0fd4	-0.00017934974
58	0x3dddf8b8	0.10838455
59	0xbdaab53a	-0.083353475
60	0x3d1d96eb	0.038474005
61	0xbda7f37c	-0.08200738
62	0x3b722957	0.003695091
63	0x3d494b02	0.0491438
64	0x3cecc696	0.028903287
65	0x3cff0f42	0.031135205
66	0xbc8753d4	-0.016519465
67	0xbdf75250	-0.12076247
68	0x3cfa49ec	0.030552827
69	0x3d5e2374	0.05423303
70	0xbc95ba18	-0.018277213
71	0xbd0499b5	-0.03237315
72	0xbd367adf	-0.044550773
73	0x3c949176	0.018135767
74	0xbe067500	-0.1313057
75	0xbd8d5d7e	-0.06902598
76	0x3d53d66a	0.051718153
77	0xbd6d2b14	-0.05790241
78	0xbdad37b2	-0.08457889
79	0xbd97e4cb	-0.07416686
80	0xbdd0c369	-0.101935215
81	0x3cb027eb	0.02150341
82	0xbbdd1562	-0.006746934
83	0xbd4347b6	-0.04767581
84	0xbcaacb64	-0.020848937
85	0xbd4a8886	-0.049446605
86	0xbc6b5f13	-0.014365929
87	0xb9bd5c08	-0.00036117458
88	0x3d6fc068	0.058533102
89	0x3d0eec15	0.034893114
90	0xbd56eb26	-0.05247035
91	0xbdc39ef6	-0.09551804
92	0x3daf30cf	0.085542314
93	0xbd99d9b7	-0.07512229
94	0xbdd40300	-0.10352135
95	0x3d8e760f	0.06956112
96	0xbd4773f7	-0.048694577
97	0xbd081807	-0.03322604
98	0xbd6c7d46	-0.057736658
99	0xbc9d4b0c	-0.019200824
100	0xba94a7cf	-0.0011341515
101	0xbe0df0e6	-0.13861427
102	0xbd2772cb	-0.04088096
103	0x3d3b6bf9	0.045757268
104	0xbd7bba83	-0.06145717
105	0xbd1a13dd	-0.0376166
106	0xba3b9e67	-0.00071570877
107	0x3ce77b3f	0.02825701
108	0xbbd64d17	-0.0065399515
109	0x3aa05ac3	0.001223408
110	0x3da52ca6	0.08065157
111	0x3e01a042	0.1265879
112	0xbdc29b6d	-0.09502301
113	0x3d893e3e	0.06701325
114	0x3d557443	0.05211283
115	0xbd08b6b7	-0.033377375
116	0x3dc36d72	0.095423594
117	0xbdeb17e4	-0.11479166
118	0x3cb7adda	0.022421766
119	0x3ca38c2f	0.019964306
120	0xbd3c02bc	-0.045901045
121	0xbd71f24d	-0.059068967
122	0x3d9eead0	0.07759631
123	0xbc438752	-0.011934118
124	0xbc2a4dee	-0.010394556
125	0x3c34dae4	0.011038516
126	0x3be5208c	0.0069924053
127	0xbb19878c	-0.002342674
128	0x3d94c53c	0.07264182
129	0x3d21fa13	0.03954513
130	0xbc8d7e59	-0.017272161
131	0x3cbcc2e3	0.023042148
132	0x3d910d45	0.07082609
133	0x3e144c29	0.14482178
134	0x3b09aeea	0.0021008798
135	0xbb3a463c	-0.002842321
136	0xbd7d74f5	-0.061879117
137	0xbc792cab	-0.015208404
138	0xbd43bcec	-0.04778759
139	0xbd015838	-0.031578273
140	0x3d02b075	0.031906564
141	0xbd998600	-0.074962616
142	0xbd6d04fe	-0.05786609
143	0x3cb73b78	0.022367224
144	0xbdc60b19	-0.096700855
145	0x3bad6a82	0.0052922377
146	0x3c75ffd2	0.015014606
147	0x3d0f325b	0.034960132
148	0x3cf91fad	0.030410612
149	0x3da5382c	0.080673546
150	0xbc18a14f	-0.009315803
151	0x3c8f1f06	0.017470848
152	0xbd0ac30b	-0.033877414
153	0x3cb2f4d5	0.02184526
154	0xbdf5ef07	-0.120084815
155	0xbd42b066	-0.047531508
156	0x3c2172b0	0.009854004
157	0xbd4913c8	-0.04909113
158	0xbd37a876	-0.04483839
159	0x3c5f4440	0.013627112
160	0x3ccc9894	0.024975099
161	0xbd7e561c	-0.06209384
162	0x3d0e1ab7	0.034693446
163	0xbde3038f	-0.11084663
164	0x3de32a89	0.11092097
165	0xbd2fdeba	-0.042937018
166	0x3c63ebcd	0.0139112
167	0x3de19aaa	0.11015828
168	0xbc0667cc	-0.008203458
169	0x3dc9b998	0.09849852
170	0x3c093fc8	0.008377023
171	0x3dc5783b	0.09642073
172	0xbc66670e	-0.014062656
173	0xbdaa1b18	-0.08305949
174	0x3d83ef01	0.06442071
175	0x3dba4f6b	0.09097179
176	0x3b3f335d	0.0029174902
177	0x3df7cb71	0.1209935
178	0x3d1a6311	0.037692133
179	0xbb43cd7f	-0.0029877124
180	0x3d1ce86f	0.038307603
181	0xbd2c60ff	-0.04208469
182	0x3d142e8e	0.03617721
183	0x3bda8030	0.006668113
184	0xbca51238	-0.020150289
185	0xbc5ffb70	-0.013670787
186	0xbc78b4d2	-0.01517983
187	0x3c59d571	0.013295517
188	0x3ccb403c	0.024810903
189	0x3b3f914f	0.0029230898
190	0x3d152584	0.03641273
191	0x3d406e6b	0.046980303
192	0xbd8ebeb6	-0.06969969
193	0x3d2d8743	0.042365324
194	0xbd12518c	-0.0357223
195	0xbbd60d34	-0.0065323357
196	0xba67c1c2	-0.0008840823
197	0x3dc22153	0.09479012
198	0xbe134819	-0.14382972
199	0x3d7b9cc3	0.061428796
200	0xbcccf8cf	-0.025020985
201	0x3cbfe950	0.023426682
202	0xbd0d7b0a	-0.034541167
203	0xbdac438f	-0.08411323
204	0x3bc6cd05	0.0060669207
205	0xbe02bad8	-0.12766588
206	0xbe055b1f	-0.13023041
207	0xbd08886b	-0.033333223
208	0x3c99fb15	0.018796483
209	0x3e217c3d	0.1577005
210	0x3b14afc2	0.0022687768
211	0x3cc7f347	0.024407996
212	0xbc8a610f	-0.016891984
213	0xbc815f88	-0.015792623
214	0xbd759f3e	-0.05996632
215	0x3b9ac5f2	0.004723304
216	0xbb49006a	-0.0030670413
217	0xbd372431	-0.04471225
218	0xbda13afe	-0.0787258
219	0x3d9cc8eb	0.076555096
220	0xbb5e64dd	-0.003393463
221	0xbc5b5475	-0.013386835
222	0xbd150d28	-0.0363895
223	0xbd715f81	-0.05892897
224	0xbd856e41	-0.0651517
225	0xbd024a45	-0.03180911
226	0xbd0c7057	-0.034286823
227	0xbd37d739	-0.044882987
228	0xbd005bb8	-0.03133747
229	0xbde1972e	-0.11015163
230	0x3d2a9753	0.04164822
231	0x3da6fe29	0.08153946
232	0x3def8003	0.11694338
233	0x3e0637b8	0.13107193
234	0xbd70e8bd	-0.058815707
235	0x3ddac651	0.10682357
236	0xbd347d33	-0.04406471
237	0xbdabe24b	-0.08392771
238	0xbcb124a8	-0.021623924
239	0x3dcbf016	0.09957902
240	0x3d93f8a1	0.072251566
241	0xbd401434	-0.046894267
242	0x3d96b478	0.073586404
243	0x3c2e7841	0.010648788
244	0xbd2546d0	-0.040350735
245	0xbd5799cc	-0.052636907
246	0x3c8523c6	0.01625241
247	0x3c6d41c3	0.014481011
248	0x3dca4333	0.098760985
249	0x3d073279	0.03300712
250	0x3dce4c83	0.10073187
251	0x3c377f07	0.011199719
252	0x3d8d8268	0.06909639
253	0xbd5cb862	-0.05388678
254	0x3d9f6b31	0.07784117
255	0x3d8d742f	0.06906926

sequential_1/conv2d_1/convolution f4 [32, 3, 3, 1]
0	0xbb5a0d83	-0.0033272214
1	0xbed9b0bc	-0.4251765
2	0xbe812cf6	-0.25229615
3	0x3e024609	0.12722029
4	0x3e15a684	0.14614302
5	0x3d5af443	0.053455602
6	0x3e68b4b0	0.22725177
7	0x3e6b77fc	0.22994989
8	0x3e02766f	0.12740491
9	0xbcd9a20b	-0.026566526
10	0x3d8f0823	0.06983974
11	0x3d264d1d	0.040600885
12	0xbe18c310	-0.1491816
13	0xbd95e57d	-0.07319162
14	0x3e33d4c1	0.17561628
15	0x3d3500b5	0.044190127
16	0x3e6cc6d7	0.23122726
17	0x3e892bd7	0.2679126
18	0xbe321da4	-0.1739412
19	0x3d1aa359	0.037753437
20	0xbe1c86c4	-0.15285784
21	0x3e5f2d5e	0.2179465
22	0x3eb3a7e2	0.35089022
23	0x3e5b45e5	0.21413381
24	0x3e8d87ce	0.27642673
25	0x3e428f7c	0.19000047
26	0x3e5f52c6	0.2180892
27	0xbe77dbc9	-0.24204935
28	0x3de5965f	0.11210322
29	0x3e09ecdc	0.13469261
30	0xbea46b5d	-0.32113162
31	0x3ebbd6a5	0.36687198
32	0xbe3aec42	-0.18254188
33	0xbb29945c	-0.0025875783
34	0x3e38fcfe	0.18065259
35	0xbe5cda26	-0.21567592
36	0x3e509155	0.2036794
37	0x3d7ded19	0.061993692
38	0xbea61a6d	-0.32442036
39	0x3ca09e7e	0.019606825
40	0x3ea143e2	0.31497103
41	0xbe345448	-0.17610276
42	0x3c2a74a8	0.01040379
43	0x3eab8e49	0.33506992
44	0x3d413b22	0.047175534
45	0x3aade5a6	0.0013267293
46	0x3bc1d3d9	0.005915147
47	0xbe917b98	-0.28414607
48	0xbe8e0128	-0.27735257
49	0x3d13e195	0.036103804
50	0x3ebae324	0.3650142
51	0x3e883016	0.26599187
52	0x3ce08194	0.027405538
53	0xbc20ea73	-0.009821522
54	0xbd9ed21a	-0.077549174
55	0x3e119719	0.14217795
56	0xbd4e10e7	-0.050309088
57	0xbe41fb97	-0.1894363
58	0x3eaca496	0.3371932
59	0xbe880c71	-0.26571992
60	0xbe0a9500	-0.13533401
61	0x3d2c0ac6	0.04200246
62	0x3e077bb4	0.13230783
63	0xbeb3cc65	-0.35116878
64	0xbe4a8134	-0.1977585
65	0x3e9276bd	0.28606215
66	0x3ca86094	0.020553865
67	0x3e85bf3d	0.26122466
68	0x3e459ec9	0.19298853
69	0xbe31ea04	-0.17374426
70	0xbe2ce05d	-0.16882463
71	0x3e43ee98	0.19133985
72	0x3aeee7c6	0.0018227033
73	0xbed5b7c9	-0.4174178
74	0xbdf088db	-0.11744853
75	0xbb04da67	-0.002027178
76	0x3cc1c1a8	0.023651913
77	0x3d872de7	0.06600552
78	0x3e94ff22	0.291009
79	0x3e8138e5	0.2523872
80	0x3e85c0b6	0.2612359
81	0x3e1b14c1	0.15144636
82	0x3e5fcf72	0.21856478
83	0x3e833e26	0.25633353
84	0xbe853d69	-0.26023415
85	0xbdf78dca	-0.12087591
86	0x3ea18ae1	0.3155127
87	0xbe943f77	-0.2895467
88	0xbe64a4da	-0.22328511
89	0x3e0fa4f9	0.14027776
90	0xbe46a192	-0.19397572
91	0xbee8de21	-0.4548197
92	0xbe8ee5f6	-0.2790982
93	0x3c709639	0.014684253
94	0xbe4d41a4	-0.20044571
95	0x3dc194bb	0.09452196
96	0x3e440f61	0.19146492
97	0x3eca2ad1	0.3948579
98	0x3de8bb04	0.113637954
99	0x3e5f249e	0.21791312
100	0x3ea5b952	0.3236795
101	0x3e9d1a1c	0.30683982
102	0xbe31a56d	-0.17348261
103	0xbd9493a7	-0.07254725
104	0xbdabc530	-0.0838722
105	0xbd697b19	-0.05700216
106	0xbecf3a71	-0.40474275
107	0xbe74acdb	-0.23894064
108	0xbc9b2eee	-0.018943276
109	0x3e817ad0	0.2528901
110	0x3ce01f9a	0.027358819
111	0x3eabb08b	0.3353313
112	0x3e27fd84	0.16405302
113	0x3e40f284	0.18842512
114	0xbe582c28	-0.21110594
115	0xbec74c3c	-0.3892535
116	0xbe2e5b6c	-0.17027062
117	0x3e7ea9fd	0.24869533
118	0x3e9fdae1	0.3122168
119	0xbd43752d	-0.04771917
120	0xbe6ee396	-0.23329005
121	0x3d41cc20	0.04731381
122	0xbdac50b4	-0.084138304
123	0xbe6005e3	-0.21877246
124	0xbd167986	-0.036736988
125	0x3e7bb165	0.2457939
126	0x3eb32841	0.3499165
127	0xbe5f6e36	-0.21819386
128	0x3e1c2514	0.15248519
129	0x3e9ddee3	0.30834112
130	0x3ded7930	0.1159538
131	0xbe8d937b	-0.2765158
132	0x3d9f3a4f	0.07774793
133	0xbba5ad9a	-0.0050560953
134	0x3b0e98b1	0.0021758492
135	0xbc3ea0a8	-0.011634983
136	0x3e4c00cb	0.19922177
137	0x3e4d9a6f	0.20078443
138	0x3e6cbaf6	0.23118195
139	0x3e491508	0.19636929
140	0x3e38953b	0.18025677
141	0xbe3c86bc	-0.18410772
142	0xbec7c1f6	-0.39015168
143	0x3e7ca658	0.2467283
144	0xbe5c3d33	-0.2150772
145	0xbd16b314	-0.036791876
146	0x3e551fd9	0.2081293
147	0xbe4e7ba4	-0.20164353
148	0xbdaa8107	-0.08325391
149	0x3e4e0807	0.2012025
150	0xbe75ad00	-0.23991776
151	0xbe3a2747	-0.18179046
152	0x3e99cfe3	0.30041417
153	0x3e452f7d	0.19256397
154	0x3e3ef284	0.186472
155	0xbe085cc0	-0.13316631
156	0xbe48a4c8	-0.19594109
157	0x3ed855af	0.4225287
158	0x3dc58d80	0.096461296
159	0x3d849454	0.06473604
160	0x3e61c133	0.22046356
161	0xbbe629b7	-0.0070240158
162	0xbe26820d	-0.16260548
163	0x3eab61d1	0.33473065
164	0x3e08d223	0.13361411
165	0x3e50e661	0.20400383
166	0x3e7685eb	0.24074523
167	0xbeb07e5e	-0.3447141
168	0x3e57ba03	0.21067052
169	0xbd2de9e8	-0.0424594
170	0xbe97bc5b	-0.2963589
171	0x3e074d58	0.13213098
172	0xbe3a5177	-0.18195139
173	0xbed3300a	-0.41247588
174	0xbe5e70cf	-0.2172272
175	0xbe1b4262	-0.15162042
176	0x3de5fef0	0.11230266
177	0x3dae9c88	0.0852595
178	0x3ea70895	0.32623735
179	0x3e68a9f7	0.22721086
180	0x3a441272	0.0007479555
181	0xbdcd9585	-0.10038284
182	0xbec49274	-0.38392985
183	0x3ea7b663	0.32756338
184	0x3dd7b57d	0.10532663
185	0xbd9bdf5c	-0.07610962
186	0xbeb20213	-0.34767208
187	0x3e832df3	0.25620994
188	0x3e7ee1cb	0.2489082
189	0xbdcb27e3	-0.09919717
190	0xbeac3b5d	-0.3363904
191	0xbedda30f	-0.43288466
192	0x3dfb44c7	0.122689776
193	0xbc91019a	-0.017700959
194	0x3e7ac8ef	0.24490713
195	0xbd35451e	-0.04425537
196	0x3ea0bd70	0.3139453
197	0x3e3b1ef6	0.1827353
198	0xbb51c333	-0.0032007217
199	0x3e7b26a2	0.24526456
200	0x3eaaedc5	0.3338453
201	0x3c113c19	0.008864426
202	0xbe7604f6	-0.2402533
203	0x3ea90589	0.33012035
204	0xbe82b14b	-0.2552589
205	0xbeab0ae9	-0.3340676
206	0x3e846d72	0.2586475
207	0xbec59ae4	-0.38594735
208	0x3cd21d28	0.025648668
209	0x3e6b1bc0	0.22959805
210	0xbe5abaf6	-0.21360382
211	0xbda89321	-0.082311876
212	0x3e753f5a	0.23949948
213	0xbea9369e	-0.33049482
214	0x3e422874	0.18960744
215	0x3dbdbe84	0.092648536
216	0x3d5fa273	0.054598283
217	0x3e7b104a	0.24517933
218	0x3e519257	0.2046598
219	0xbe24b5e1	-0.16085006
220	0x3dc4101a	0.09573384
221	0x3db49ff7	0.088195734
222	0xbefeb52f	-0.49747607
223	0xbf25ea16	-0.6481031
224	0xbecc04b8	-0.3984735
225	0x3e668c47	0.22514449
226	0x3e6dd55e	0.23225924
227	0x3e2565ed	0.16152163
228	0xbcd2367b	-0.025660744
229	0x3de2ffc2	0.11083938
230	0x3e02822b	0.12744968
231	0xbeb953fc	-0.36196887
232	0xbecd00d2	-0.40039688
233	0xbe63112a	-0.22174516
234	0xbeac7612	-0.3368383
235	0xbf31fa27	-0.6952233
236	0xbedd3798	-0.43206477
237	0xbe6b9e41	-0.23009588
238	0xbce207cc	-0.027591608
239	0x3ddb081c	0.10694906
240	0x3e78e9b3	0.24307899
241	0x3e1658e2	0.14682344
242	0x3e9b93d7	0.3038623
243	0x3ea0bbb4	0.31393206
244	0x3e9a9db8	0.30198455
245	0x3b5fc76b	0.0034145962
246	0x3e9f5b1c	0.31124198
247	0x3e68bf43	0.2272921
248	0x3d9b06af	0.07569634
249	0x3da017da	0.07817049
250	0xbea3e270	-0.32008696
251	0xbdd27ca6	-0.10277681
252	0x3d445f77	0.047942605
253	0xbe2381ce	-0.15967485
254	0xbe9eb3ee	-0.3099665
255	0x3d563f5f	0.05230653

sequential_1/conv2d_1/Relu;sequential_1/conv2d_1/BiasAdd;sequential_1/conv2d_1/convolution; f4 [32]
0	0xbacce9b2	-0.0015633611
1	0xbc057206	-0.008144861
2	0xbb155e3a	-0.002279176
3	0xbb09c9d9	-0.0021024852
4	0xba8f0af3	-0.0010913297
5	0xbb39b9d3	-0.002833952
6	0xb9986944	-0.00029070128
7	0xbabd9359	-0.0014463469
8	0xbb5807d9	-0.0032963662
9	0xbc059cb3	-0.008155036
10	0xbb05fdfe	-0.002044558
11	0xbbc293a5	-0.0059380108
12	0xbbf7badf	-0.0075601186
13	0xbad54c6a	-0.0016273384
14	0xbba0f125	-0.004911559
15	0xbc384e5e	-0.011249153
16	0xbb1fbd95	-0.0024374474
17	0xbb1003bb	-0.002197488
18	0xbba7864a	-0.005112444
19	0xbb789846	-0.003793256
20	0xbb871937	-0.004122879
21	0xbb08d578	-0.002087919
22	0xbb05964f	-0.002038378
23	0xbb912acf	-0.004430152
24	0x3d93854a	0.07203157
25	0x3ca43b9a	0.020047951
26	0x3d51541b	0.0511056
27	0xbc0a37e2	-0.008436175
28	0xbba88d66	-0.005143809
29	0x3c8a5972	0.016888354
30	0x3d6ef0f7	0.05833527
31	0xbc7ad3d9	-0.0153092975
